 FCCCSR/parameter/tut1-model.pt (torch, 332615 bytes, 9 tensors)

conv1.weight f4 [27, 1, 5]
0	0x3e8a0ae5	0.26961437
1	0xbe474043	-0.19458108
2	0xbd805066	-0.06265335
3	0x3e76c329	0.24097885
4	0xbed74cc0	-0.42050743
5	0x3e7e3e95	0.2482856
6	0xbdf55535	-0.119791426
7	0x3e445c4e	0.19175836
8	0x3c8ce11a	0.01719718
9	0xbd93a114	-0.072084576
10	0x3e01c98e	0.12674543
11	0x3dabfba0	0.08397603
12	0x3e88e131	0.26734307
13	0xbe27a960	-0.16373205
14	0xbccb963e	-0.024851914
15	0x3b9965d2	0.0046813274
16	0x3daa1330	0.08304441
17	0x3cced5c8	0.025248423
18	0x3ecc7899	0.3993576
19	0x3e31b037	0.17352377
20	0xbe487e5b	-0.19579451
21	0xbe8ad028	-0.27111936
22	0xbe17e589	-0.14833654
23	0xbe5328b0	-0.2062099
24	0xbe309201	-0.17243196
25	0x3d87e483	0.06635382
26	0x3ec5546b	0.38540968
27	0x3e6968bf	0.22793864
28	0xbec5b6a7	-0.38615915
29	0x3ecb95a0	0.39762592
30	0x3e59427c	0.21216768
31	0x3f0b7e65	0.5448974
32	0x3ee7d77e	0.45281595
33	0xbebc95d6	-0.36833066
34	0xbed1e62b	-0.40995917
35	0xbe30e4b8	-0.1727475
36	0x3ee4e2a1	0.44704154
37	0xb97ad448	-0.00023920939
38	0x3e92d31a	0.28676683
39	0xbe104bec	-0.14091462
40	0x3efa50d4	0.48889792
41	0xbe042e24	-0.12908226
42	0x3ef69719	0.48162153
43	0x3d9ef8c7	0.07762294
44	0xbe5e840b	-0.21730058
45	0x3e93c228	0.28859067
46	0xbe58f653	-0.21187715
47	0x3e79d72d	0.2439849
48	0xbde62f05	-0.11239437
49	0xbd0f449c	-0.03497754
50	0xbec8a41c	-0.39187706
51	0xbe3e49bf	-0.1858282
52	0x3e809ac4	0.25118077
53	0xbd68c687	-0.056829955
54	0x3ef3996e	0.47577995
55	0x3ee30171	0.44337037
56	0x3dbae6c6	0.09126048
57	0xbe71f01b	-0.23626749
58	0x3e677960	0.22604895
59	0x3e0e3f97	0.13891445
60	0xbe82a7df	-0.255187
61	0x3eb873a3	0.36025724
62	0x3ec3ac1e	0.38217252
63	0x3f047670	0.5174322
64	0xbe68af00	-0.22723007
65	0xbd635d59	-0.055508945
66	0x3d045208	0.032304794
67	0x3d214a74	0.039377645
68	0xbeaee16d	-0.3415636
69	0xbe9986c8	-0.29985642
70	0x3eb850d2	0.3599916
71	0xbd1e382a	-0.03862778
72	0x3e83fbbc	0.25777996
73	0x3db85516	0.09000604
74	0x3db7d1d6	0.0897557
75	0x3e21ad97	0.15788876
76	0x3e907cef	0.28220317
77	0x3ecfecfa	0.40610486
78	0xbec38719	-0.3818901
79	0x3ec6d759	0.38836172
80	0xbe8f0055	-0.2792994
81	0xbea5c05f	-0.3237333
82	0x3d594aa7	0.05304971
83	0xbd9cc712	-0.07655157
84	0x3e534139	0.20630349
85	0xbe77f996	-0.24216303
86	0xbeb7a1ab	-0.3586553
87	0x3ebfc3e9	0.37454155
88	0xbc352123	-0.011055264
89	0x3e93f9e0	0.28901577
90	0x3e103237	0.14081655
91	0xbe7a542a	-0.24446169
92	0x3d41ae2b	0.04728524
93	0x3dac794c	0.08421573
94	0xbe6e522c	-0.23273534
95	0xbe300a8c	-0.17191523
96	0x3e33d456	0.17561468
97	0x3d8429f3	0.06453314
98	0xbdeadf02	-0.114683166
99	0xbd9d5c6a	-0.07683642
100	0x3f054a1f	0.52066225
101	0xbcd8f2ad	-0.026482904
102	0x3eac4103	0.3364335
103	0x3ec525d5	0.38505426
104	0xbe81eb07	-0.25374624
105	0xbea86bc1	-0.3289471
106	0x3f0710b3	0.52759856
107	0x3dd01615	0.10160462
108	0x3ea68199	0.3252075
109	0x3e5e1279	0.21686734
110	0x3e5f5a71	0.21811844
111	0x3ee27581	0.44230273
112	0x3f04eb16	0.5192121
113	0xbe8371e4	-0.2567283
114	0x3dbbcd77	0.09170049
115	0x3e9a58bb	0.3014582
116	0x3e974d56	0.2955119
117	0x3e3c11d6	0.18366179
118	0xbeb58fd5	-0.35461298
119	0xbeb1cc70	-0.34726286
120	0xbe6f5c5c	-0.23375076
121	0x3e9351c3	0.28773317
122	0x3f032f90	0.5124445
123	0xbe61af2a	-0.22039476
124	0x3ed6a6e1	0.41924194
125	0xbe68e807	-0.22744761
126	0xbec2eb66	-0.3807022
127	0xbd557742	-0.052115686
128	0x3ed16d74	0.4090382
129	0x3ee2a6f8	0.44268012
130	0xbe567b00	-0.20945358
131	0x3e862be8	0.26205373
132	0x3f001eb2	0.5004684
133	0x3ecafe66	0.39647216
134	0x3eba8d53	0.36435947

conv1.bias f4 [27]
0	0x3eab153d	0.3341464
1	0x3ea34674	0.3188969
2	0x3dff0082	0.12451269
3	0xbeb941af	-0.36182925
4	0xbeecf63a	-0.46281606
5	0xbe8e0ee8	-0.27745748
6	0xbdd3cf6b	-0.10342296
7	0xbea96b7a	-0.3308981
8	0x3dfca971	0.12337006
9	0x3e1abe96	0.15111765
10	0xbe2905f1	-0.16506173
11	0x3dce3194	0.1006805
12	0x3e1a5c5c	0.15074295
13	0x3e8fe84b	0.28106913
14	0x3e8e4978	0.27790427
15	0xbe4a1f1b	-0.19738428
16	0x3ee642b9	0.4497278
17	0xbdbd9e9f	-0.0925877
18	0xbdb95c50	-0.0905081
19	0xbf01cc9c	-0.50702834
20	0xbeace62f	-0.33769366
21	0xbea367a6	-0.31915015
22	0xbe767ea7	-0.24071752
23	0x3eb47841	0.35247996
24	0xbe4b7815	-0.19870026
25	0xbec781f8	-0.38966346
26	0x3e09f175	0.13471015

conv2.weight f4 [15, 27, 3]
0	0x3d526f05	0.051375408
1	0x3dc6fca2	0.09716155
2	0xbd336531	-0.043797676
3	0x3cb4cbf6	0.022069912
4	0xbd007068	-0.0313572
5	0xbcec1464	-0.028818317
6	0xbdb99cd8	-0.09063119
7	0xbd0ea3d8	-0.034824222
8	0xbd84956b	-0.06473812
9	0xbc887aa7	-0.016660048
10	0xbc5eaf1c	-0.013591554
11	0x3c4b35aa	0.012402931
12	0x3e0c973b	0.13729565
13	0x3e017216	0.12641177
14	0x3dd55e5a	0.10418387
15	0xbac220e4	-0.0014810828
16	0xbdb20f31	-0.08694304
17	0x3d9a24a4	0.0752652
18	0xbce9b696	-0.028529447
19	0xbb8fb651	-0.0043857475
20	0xbdf4b9d7	-0.11949509
21	0xbd2b7454	-0.041858986
22	0xbd940740	-0.07227945
23	0x3d8980b0	0.06713998
24	0xbdeb230c	-0.11481294
25	0xbda09081	-0.07840062
26	0xbcb95a52	-0.022626076
27	0xbd47c9ce	-0.04877644
28	0x3d614f30	0.05500716
29	0xbd3ed11c	-0.04658614
30	0xbd15b3f7	-0.03654858
31	0x3c9ab8f7	0.018887026
32	0x3da19cd7	0.07891243
33	0xbda6280d	-0.08113108
34	0x3d38e9bb	0.045144778
35	0x3da76186	0.08172898
36	0x3dbaf57c	0.09128854
37	0xbdb19910	-0.086717725
38	0x3c66f67d	0.014096853
39	0xbd85bb18	-0.06529826
40	0x3df00dd8	0.117213905
41	0xbcd6f2cf	-0.026238827
42	0x3d668477	0.056278672
43	0xbcf692cb	-0.030099293
44	0xbd03aa38	-0.032144755
45	0x3bd0af3b	0.0063685453
46	0x3cbd8f26	0.023139548
47	0x3cd6deaa	0.026229221
48	0x3d0504a3	0.032475125
49	0x3d5086f7	0.050909963
50	0xbdb1ad46	-0.086756274
51	0x3dc389a6	0.09547739
52	0x3ded9680	0.11600971
53	0x3dc71f8e	0.097228155
54	0x3dd267c4	0.10273698
55	0xbd822134	-0.06353989
56	0xbcde9641	-0.027171256
57	0x3da72d1e	0.08162902
58	0xbe0c50a5	-0.13702638
59	0x3d853332	0.06503905
60	0xbe2b4ed5	-0.16729291
61	0xbde57ddb	-0.11205646
62	0x3c6fa065	0.014625643
63	0xbdf4e260	-0.1195724
64	0x3c313cc2	0.010817708
65	0x3d99f5d9	0.07517595
66	0x3d1eefcb	0.038802903
67	0x3d7dcfdc	0.06196581
68	0xbda13011	-0.07870496
69	0xbda18e6a	-0.078884915
70	0x3dffdbbf	0.12493085
71	0xbccb81a2	-0.024842087
72	0xbd49dce8	-0.04928294
73	0x3b325811	0.0027213136
74	0xbdc94226	-0.0982707
75	0x3db01518	0.08597773
76	0x3daffa2d	0.08592639
77	0xbdb7396d	-0.089465
78	0xbe1c9de9	-0.15294613
79	0xbbe98645	-0.007126602
80	0x3d158297	0.036501493
81	0x3cab558f	0.020914821
82	0xbcce0152	-0.025147114
83	0x3ce1e4d9	0.027574943
84	0xbdc821fe	-0.097721085
85	0xbd83ed7c	-0.06441781
86	0xbd74653c	-0.059666857
87	0x3dbdf173	0.092745684
88	0x3da47b50	0.080313325
89	0xbc9cf40f	-0.019159345
90	0xbd4b42d6	-0.049624287
91	0xbcd49bbc	-0.025953166
92	0xbe217369	-0.15766682
93	0xbce306ea	-0.027713258
94	0x3daa3281	0.08310414
95	0x3da5dd0d	0.08098803
96	0xbdd3b452	-0.10337128
97	0xbd869e6e	-0.06573187
98	0x3dc0607f	0.09393405
99	0x3dcfc787	0.10145479
100	0xbdb1c15e	-0.0867946
101	0x3e073dac	0.1320712
102	0xbd781134	-0.06056328
103	0xbe3b0b22	-0.18265966
104	0x3d707701	0.05870724
105	0xbdb40e28	-0.087917626
106	0x3dc9bf8b	0.09850987
107	0xbd820833	-0.0634922
108	0x3d5aa74b	0.0533822
109	0x3d5a6594	0.05331953
110	0x3d3dd59b	0.04634629
111	0x3deddd69	0.11614496
112	0xbd09ddba	-0.03365872
113	0xbd517284	-0.0511346
114	0xbe02796e	-0.12741634
115	0xbbb8042f	-0.005615733
116	0xbd333967	-0.043755915
117	0x3c0e21bd	0.008675036
118	0xbc9cc1e6	-0.019135427
119	0x3d6655e4	0.056234255
120	0x3df7151f	0.120645754
121	0x3d734cc8	0.059399396
122	0x3b5929e5	0.0033136543
123	0xbdc6962a	-0.0969661
124	0xbe120472	-0.14259508
125	0x3dbe78c5	0.09300379
126	0xbda58ff5	-0.08084098
127	0xbdaac0d2	-0.08337559
128	0x3b22293b	0.0024743814
129	0xbd24989b	-0.0401846
130	0x3db1ea2b	0.08687242
131	0x3da8f455	0.08249728
132	0x3d06abe3	0.032878768
133	0xbd3d03ac	-0.04614608
134	0xbd2518ea	-0.040306963
135	0x3ccb63eb	0.024827918
136	0xbd05bb90	-0.032649577
137	0xbd3f989e	-0.046776406
138	0xbd974397	-0.073859386
139	0xbe26a509	-0.16273893
140	0xbd5e1890	-0.054222643
141	0xbe525363	-0.20539622
142	0xbdd0ced7	-0.101957016
143	0xbdab2aaa	-0.08357747
144	0xbe39f43e	-0.18159577
145	0x3d127b7a	0.035762288
146	0x3b346ba6	0.0027529984
147	0xbd87e7bc	-0.06635997
148	0xbdf5e2ca	-0.12006147
149	0xbd2b10a6	-0.041763924
150	0xbdb8d9d9	-0.09025926
151	0xbd0bb0e1	-0.03410423
152	0x3dd042af	0.10168969
153	0xbe2ad0c7	-0.16681205
154	0xbd58b94b	-0.052911084
155	0x3d6a355f	0.057179805
156	0x3d8d528e	0.06900512
157	0x3d54ba9c	0.051935777
158	0xbd0efe2d	-0.03491037
159	0xbd8032ae	-0.062596664
160	0xbc98741c	-0.018610053
161	0xbd22f07a	-0.039780118
162	0x3d7e5361	0.062091235
163	0xbd3db5ea	-0.046316065
164	0xbd7e31ae	-0.062059097
165	0x3d30309e	0.043015115
166	0xbdd5d21e	-0.10440467
167	0xbc8a84b8	-0.016908988
168	0x3ce0bc6b	0.027433595
169	0x3d11f452	0.035633393
170	0x3e0d8d43	0.13823418
171	0xbd9a5e12	-0.07537474
172	0xbd83a1ee	-0.0642737
173	0xbd14f65a	-0.03636775
174	0xbd9d88d6	-0.07692115
175	0xbdbc95ca	-0.092082575
176	0x3d2bb4a9	0.041920338
177	0xbb260bc3	-0.00253366
178	0xbe14d0f3	-0.14532833
179	0xbdbf69dc	-0.09346363
180	0xbdd8eea6	-0.105923936
181	0x3e072aa4	0.1319986
182	0x3adc9d2b	0.0016831508
183	0xbd2f1145	-0.04274108
184	0xbd8a1db3	-0.06743946
185	0xbdc56b08	-0.09639555
186	0xbdab0f65	-0.08352546
187	0xbda72d90	-0.08162987
188	0x3da864d8	0.082223594
189	0x3d0746c4	0.03302647
190	0xbda0c2ae	-0.07849632
191	0xbcc44f82	-0.023963694
192	0x3d691cba	0.05691216
193	0x3d3cbf92	0.046081133
194	0x3e17dcb0	0.1483028
195	0x3d0db885	0.0345998
196	0x3caaa1ba	0.02082907
197	0xbc7a6bfc	-0.015284535
198	0xbda8d078	-0.08242887
199	0xbdcf10e7	-0.10110646
200	0x3dac4c8f	0.0841304
201	0xbc53d7e3	-0.012929889
202	0x3d3e7fbf	0.046508547
203	0xbae40e13	-0.0017399214
204	0xbda434f3	-0.08017912
205	0xbda45060	-0.08023143
206	0x3d52d089	0.051468406
207	0xbd4596c9	-0.048239503
208	0xbe374cff	-0.17900465
209	0x3d29f046	0.04148891
210	0xbc2385c1	-0.00998062
211	0xbd24e956	-0.04026159
212	0x3d89727d	0.0671129
213	0x3c4a697e	0.012354253
214	0xbd8bb72b	-0.06822046
215	0x3dec2072	0.11529626
216	0x3dabeb62	0.08394505
217	0xbcb4e68f	-0.022082595
218	0xbc1ad913	-0.009451169
219	0xbd910601	-0.07081223
220	0x3d060045	0.0327151
221	0xbd7ef915	-0.062249262
222	0xbd4c6b56	-0.04990705
223	0x3d84f789	0.06492526
224	0x3d1cbd73	0.03826661
225	0xbaf3ee76	-0.0018610496
226	0xbd939d37	-0.07207721
227	0xbd8bbbac	-0.06822905
228	0xba99f063	-0.0011744614
229	0x3da47dcf	0.080318086
230	0x3d4cc5c1	0.04999328
231	0xbd9774ea	-0.073953465
232	0x3e016210	0.12635064
233	0x3c2c60d0	0.010521129
234	0x3dc1c1df	0.09460806
235	0xbd0cc42e	-0.03436678
236	0x3df9f422	0.12204768
237	0x3d938c9e	0.07204555
238	0xbde07347	-0.109594874
239	0x3dd2337c	0.10263726
240	0x3b18b2c1	0.0023299905
241	0xbdb3b270	-0.087742686
242	0xbc9baa9c	-0.019002251
243	0xbdd37afe	-0.10326193
244	0xbd884180	-0.06653118
245	0xbdb78b33	-0.08962097
246	0x3dbb07f7	0.091323785
247	0xbcc63a65	-0.024197767
248	0xbd1bbee8	-0.03802386
249	0x3d8ed7f0	0.069747806
250	0x3d19c279	0.03753898
251	0xbdc54fcf	-0.09634363
252	0x3e07fff5	0.13281234
253	0x3c00242f	0.007821127
254	0x3e107483	0.14106946
255	0xbba1dfe3	-0.0049400195

conv2.bias f4 [15]
0	0x3d02ecf2	0.03196425
1	0x3d401f89	0.046905074
2	0x3da4aae7	0.080404095
3	0x3d23ffc5	0.040038843
4	0x3de4a112	0.11163534
5	0xbd681e5d	-0.05666958
6	0x3da5a9b6	0.080890104
7	0xbccfd6f0	-0.025371045
8	0xbdaf55fc	-0.08561322
9	0xbdb35695	-0.087567486
10	0x3e08ee5b	0.13372175
11	0x3d866571	0.06562317
12	0xbd8f6346	-0.07001357
13	0xbcb91f13	-0.022597825
14	0xbd495a45	-0.049158353

liner1.weight f4 [260, 240]
0	0xbcf06409	-0.029344575
1	0x3d54b931	0.051934425
2	0xbd93214f	-0.071840875
3	0x3ca06414	0.019578971
4	0xbd87092f	-0.065935485
5	0xbd174484	-0.036930576
6	0xbcccc6f4	-0.024997212
7	0xbbb98f9e	-0.0056628725
8	0xbca33d37	-0.01992665
9	0xbd31c73f	-0.043402907
10	0xbd34a53b	-0.04410289
11	0xbd3d309a	-0.04618893
12	0xbd5e946b	-0.05434076
13	0xbd51486c	-0.051094458
14	0x3d500ce1	0.050793532
15	0xbd269209	-0.040666614
16	0xbd87878a	-0.06617649
17	0x3d1f6529	0.038914833
18	0x3c619318	0.01376798
19	0x3d15b85b	0.03655277
20	0xbd8e4fd7	-0.06948822
21	0xbd8c34a0	-0.06845975
22	0xbd6844fe	-0.05670642
23	0xbd31719e	-0.043321244
24	0xbc0f001d	-0.008728054
25	0x3c91868a	0.017764349
26	0x3cfc151a	0.03077178
27	0xbd7fade9	-0.062421713
28	0x3cb96045	0.022628913
29	0xbd489cf0	-0.048977792
30	0x3b794bd5	0.0038039584
31	0x3bd37a81	0.0064538126
32	0xbaa11d57	-0.0012292069
33	0x3c523f60	0.012832493
34	0xbc9bf83d	-0.019039268
35	0x3d0a82ee	0.03381627
36	0x3acbb0e4	0.0015540388
37	0x3d44e250	0.04806739
38	0xbb232144	-0.0024891654
39	0xbd34f886	-0.044182323
40	0x3cede8ad	0.029041613
41	0xbbcf4bca	-0.0063261734
42	0x3d43f80b	0.047843974
43	0xbc5110ea	-0.01276038
44	0x3d56b147	0.05241516
45	0xbd438f21	-0.04774392
46	0x3ca20cdf	0.019781528
47	0xbd72e5cd	-0.059301186
48	0x3ce51b72	0.027967189
49	0xbb335f82	-0.002737016
50	0x3ce70a04	0.028203018
51	0xbd8bfa3f	-0.0683484
52	0xbda2b965	-0.079455175
53	0x3cbf9a16	0.023388904
54	0xbd13d492	-0.036091395
55	0x3c208dbc	0.009799417
56	0xbd4bf826	-0.0497972
57	0xbcf61ff2	-0.03004453
58	0xbc1923a8	-0.00934688
59	0x3ceb8f8e	0.028754976
60	0x3cd024f7	0.025408251
61	0xbc944f88	-0.01810433
62	0xbcf59896	-0.029979985
63	0xbc5fbec9	-0.013656327
64	0x3cccc0f6	0.024994355
65	0xbd601806	-0.05471041
66	0xbcbbae29	-0.022910194
67	0xbd7bff6c	-0.061522886
68	0x3c18a860	0.0093174875
69	0xbbfa3040	-0.0076351464
70	0x3d03d650	0.032186806
71	0x3d3ed56f	0.046590265
72	0xbd53325b	-0.051561695
73	0xbce976b5	-0.028498987
74	0xbc72e35d	-0.014824715
75	0xba28bc80	-0.000643678
76	0xbc71698c	-0.014734637
77	0xbd1c41d1	-0.038148705
78	0xbd015c5d	-0.031582225
79	0xbbca47d2	-0.0061731124
80	0x3d0ff79c	0.035148248
81	0xbcff9c60	-0.031202495
82	0x3ce98510	0.028505832
83	0xbd86f45c	-0.065895766
84	0xbc57f396	-0.013180634
85	0xbd824e6b	-0.06362613
86	0xbd98760d	-0.074443914
87	0xbb9dd59d	-0.0048167245
88	0xbd2e939c	-0.04262124
89	0x3d0f83e9	0.03503791
90	0x3d20c7ff	0.03925323
91	0xbd9567f8	-0.07295221
92	0xbc8be8ca	-0.017078776
93	0xbcbab904	-0.0227933
94	0xbd4ad32c	-0.049517795
95	0xbd726378	-0.059176892
96	0xbd0b6b18	-0.03403768
97	0x3c8c9b1c	0.017163806
98	0x3c424fd6	0.011859855
99	0x3ce664c8	0.028124228
100	0xbc5d1c73	-0.013495552
101	0x3ccda909	0.025105016
102	0x3b9dfa6c	0.0048211124
103	0xbcae220d	-0.021256471
104	0xbc34787d	-0.011015055
105	0xbd81c0a8	-0.063355744
106	0xbbc4debb	-0.006007997
107	0xbcd97c0a	-0.026548404
108	0xbcefb5cf	-0.029261498
109	0xbd0d0a76	-0.034433804
110	0xbca3ff52	-0.020019207
111	0xbd3f4ee8	-0.04670611
112	0xbc3038ae	-0.010755701
113	0xbc935a43	-0.017987376
114	0xbce16722	-0.027514998
115	0x3d33419d	0.043763746
116	0x3cf5b58e	0.029993799
117	0x3b878cc8	0.0041366555
118	0xbd039489	-0.032124076
119	0xbb92c478	-0.0044789873
120	0xbd698cde	-0.057019107
121	0x3d0ea8f8	0.03482911
122	0x3d4b9d14	0.04971035
123	0xbca2c83a	-0.019870866
124	0x3d12eb78	0.03586909
125	0x3d480386	0.048831485
126	0xbc67273b	-0.014108474
127	0xbd1279f4	-0.035760835
128	0x3bc535ce	0.006018377
129	0x3c2ec5f0	0.010667309
130	0xbd6aebbb	-0.057353716
131	0xbbd92662	-0.00662689
132	0xbcbf3196	-0.023339074
133	0x3d306e1a	0.04307375
134	0xbc271d64	-0.010199878
135	0x3d2f1b37	0.042750563
136	0x3d8379af	0.06419694
137	0xbca5b880	-0.020229578
138	0x3bf3f77b	0.0074452735
139	0xbbb4efb8	-0.0055217408
140	0xbcc9122e	-0.024544802
141	0xbd2ee2ba	-0.042696692
142	0xbbc1578e	-0.00590033
143	0x3c6988e4	0.014253829
144	0xbcdada07	-0.026715292
145	0xbb3727a3	-0.002794721
146	0x3cbdb3fa	0.023157109
147	0x3c59dff6	0.013298025
148	0x3c51faaa	0.012816111
149	0x3b8b1748	0.0042447187
150	0xbd82f974	-0.06395236
151	0xbd54cb28	-0.051951557
152	0xbd763c67	-0.060116198
153	0x3cf537fc	0.029933922
154	0xbd8ca42d	-0.068672515
155	0xbd734080	-0.059387684
156	0x3cffa06a	0.031204421
157	0x3cca7216	0.024712604
158	0xbd978bb7	-0.07399695
159	0x3cc54bce	0.024083998
160	0xbcbb58ac	-0.02286943
161	0x399185e9	0.00027756326
162	0xbd36f28b	-0.0446649
163	0xbc850125	-0.016235897
164	0x3c7bf7ad	0.015378875
165	0x3d2d0a19	0.042245958
166	0x3cf44564	0.029818244
167	0xbd39efba	-0.045394637
168	0xbd526bf6	-0.05137249
169	0xbc41e430	-0.011834189
170	0x3c24d5ed	0.0100607695
171	0x3cdaf568	0.026728347
172	0xbd8857a4	-0.06657341
173	0xbc46ce46	-0.01213414
174	0xbbac7944	-0.0052634794
175	0xbd3476b9	-0.044058535
176	0x3d23bd9e	0.039975755
177	0xbd0022e1	-0.031283263
178	0xbd9c200c	-0.076233
179	0xbd504c30	-0.050853908
180	0xbc245d7a	-0.010032052
181	0xbd82756f	-0.06370055
182	0x3b921fa6	0.004459339
183	0x3d46d03f	0.048538443
184	0xbc0582f5	-0.008148898
185	0xbcf4928d	-0.029855037
186	0x3d44c2cf	0.048037346
187	0x3d12d031	0.035843078
188	0x3ce3cbc3	0.027807122
189	0xbbdb408b	-0.0066910437
190	0xbc0fb0f9	-0.008770221
191	0xbd823864	-0.06358412
192	0xbae34c97	-0.0017341551
193	0x3d6bba4f	0.057550725
194	0xbc35a637	-0.011086992
195	0xbd83a403	-0.06427767
196	0x3cbc31bc	0.022972934
197	0x3d580849	0.052742276
198	0x3d3c99c0	0.046045065
199	0xbbfffff0	-0.0078124925
200	0x3b526639	0.0032104386
201	0x3b1a7225	0.002356657
202	0xbd22b3c4	-0.03972222
203	0xbc926456	-0.01787011
204	0x3d3c0e72	0.045912214
205	0xbb647be3	-0.0034863881
206	0x3d4ec390	0.05047947
207	0xbd4befce	-0.049789242
208	0xbcbe22b6	-0.02320991
209	0xbc66365a	-0.014051044
210	0xbd559930	-0.052148044
211	0x3d196f23	0.037459504
212	0x3cfc4dec	0.030798875
213	0xbd3de367	-0.046359446
214	0x3d316971	0.043313447
215	0x3d44bcb6	0.04803153
216	0xbd53472f	-0.051581558
217	0xbc70de05	-0.014701371
218	0x3d57996f	0.05263656
219	0xbd5e78e1	-0.054314498
220	0xbcb7d90f	-0.022442369
221	0xbd65484b	-0.055977147
222	0x3d0b6e98	0.034041017
223	0xbb5d6434	-0.003378165
224	0x3c7b4df9	0.015338414
225	0x3d1e01f0	0.038576066
226	0xbc2deeb1	-0.0106159905
227	0xbd7fe08e	-0.06247001
228	0xbb6eb47c	-0.0036423495
229	0xbc1ea8cd	-0.0096838
230	0x3c560871	0.013063536
231	0x3cbb89aa	0.022892792
232	0xbd261d3b	-0.04055522
233	0xbcff2264	-0.031144328
234	0x3d0bc191	0.034120146
235	0x3caafb13	0.020871675
236	0x3c241f26	0.010017192
237	0x3c98e5bc	0.018664233
238	0x3cb1f732	0.021724317
239	0xbd57bcee	-0.05267041
240	0xbc4a05cf	-0.012330486
241	0xbbcdd3c7	-0.0062813493
242	0xbd629c06	-0.055324577
243	0xbc98aefd	-0.018638128
244	0x3c96de7b	0.018416634
245	0x3d4ee1c3	0.050508272
246	0xbaac80c6	-0.0013160936
247	0x3dbbec3d	0.09175918
248	0x3dbdaf19	0.09261913
249	0x3d01320e	0.031541876
250	0x3c803196	0.015648644
251	0x3cf57f21	0.029967846
252	0x3c369c95	0.0111457305
253	0xbd8492f5	-0.06473342
254	0xbd9c208f	-0.076233976
255	0xbc144fc2	-0.009052219

liner1.bias f4 [260]
0	0xbbaab0e3	-0.005209075
1	0x3bb7f94d	0.0056144358
2	0x3dbf36c4	0.093366176
3	0x3d08a856	0.033363663
4	0xbd6f4a2a	-0.058420338
5	0xbcaec112	-0.021332297
6	0x3d1f4d20	0.03889191
7	0xbcd977ba	-0.026546348
8	0xbc47332a	-0.012158195
9	0xbd3fc9d3	-0.046823334
10	0x3c507c5d	0.012724963
11	0x3ccdb0d4	0.025108732
12	0xbd928014	-0.07153335
13	0xbd7cac25	-0.061687607
14	0x3b689d4e	0.0035494152
15	0xbc84323b	-0.016137233
16	0xbd342b11	-0.043986384
17	0xbbf92398	-0.00760312
18	0x3ba6a533	0.0050856113
19	0x3d1a2606	0.03763392
20	0x3abe5bd1	0.0014523213
21	0x3d9e26e9	0.07722265
22	0xbd8c2a23	-0.068439744
23	0xbd56ee98	-0.052473634
24	0xbc4af330	-0.012387082
25	0xbb779c86	-0.0037782504
26	0xbd14344f	-0.036182698
27	0xbacaf83a	-0.0015485354
28	0xbc25056d	-0.010072094
29	0xbc3aa819	-0.011392617
30	0x3d11d84e	0.035606675
31	0xbd691af7	-0.05691048
32	0x3d19efd0	0.03758222
33	0xbc9cd466	-0.019144248
34	0xbc0d3f78	-0.008621089
35	0xbd8da038	-0.06915325
36	0x3d445aea	0.047938265
37	0xbd3c61bf	-0.045991655
38	0x3d11c736	0.035590373
39	0x37fedf09	3.0383018e-05
40	0xbc8eb2a3	-0.017419165
41	0x3d0b272a	0.033972897
42	0x3d6a4795	0.057197172
43	0xbb83224b	-0.004001891
44	0xbd6bcc3c	-0.05756782
45	0x3d10a7aa	0.035316147
46	0x3cc710ab	0.02429994
47	0x3d6ccce5	0.05781259
48	0x39feb13a	0.000485787
49	0xbc6eb14f	-0.014568641
50	0x3d0c9683	0.034323227
51	0xbcb48116	-0.02203421
52	0x3c9343e9	0.017976718
53	0xbd8c194f	-0.06840765
54	0x3cc3d823	0.023906773
55	0xbc1a3696	-0.009412428
56	0x3c5e901b	0.013584162
57	0xbba789f0	-0.005112879
58	0xbd5bd561	-0.05367029
59	0x3c960ca0	0.018316567
60	0x3cf823cd	0.030290509
61	0xbb43d243	-0.0029879964
62	0x3d5d08a0	0.053963304
63	0xbc7e19e9	-0.015509107
64	0xbd3f33bd	-0.0466802
65	0xbc86ef19	-0.016471433
66	0xbc041569	-0.008061745
67	0x3c9b02d4	0.018922247
68	0xbd4ef027	-0.050521996
69	0xbd184608	-0.037176162
70	0xbd08a02e	-0.033355884
71	0x3d9f13a6	0.077674195
72	0x3baa4142	0.0051957676
73	0x3d29fb06	0.04149916
74	0xbcb1d1dc	-0.021706514
75	0xbd251ca7	-0.040310528
76	0xbd4bca8c	-0.04975371
77	0x3d6a6ef4	0.05723472
78	0x3d308c4e	0.043102555
79	0xbab7e31d	-0.0014029477
80	0x3d0f6a6f	0.035013612
81	0xbcb53830	-0.022121519
82	0x3d63a8d4	0.05558093
83	0x3dc352e7	0.09537297
84	0x3ca6341d	0.020288521
85	0xbd2dcdf7	-0.04243275
86	0x3d5b0496	0.05347117
87	0x3d249144	0.0401776
88	0x3d8fcf68	0.070219815
89	0xbd73e278	-0.05954215
90	0x3df2605c	0.11834785
91	0x3ca6ccfb	0.020361414
92	0xbcfc4730	-0.030795664
93	0xbcd81d18	-0.02638106
94	0xbcfd109e	-0.030891713
95	0xbd1725d7	-0.03690132
96	0x3c4a31d0	0.012340978
97	0xbd2eecb0	-0.04270619
98	0x3d6492fc	0.055804238
99	0x3d535dec	0.051603243
100	0x3d153f48	0.036437303
101	0x3cbbe2dc	0.022935323
102	0xbceee467	-0.029161645
103	0xbbab4299	-0.005226445
104	0xbc7e5d5c	-0.015525188
105	0xbc062fa0	-0.008190066
106	0x3cf9ce91	0.030494006
107	0x3c9f4dad	0.019446218
108	0xbc9b00f0	-0.018921345
109	0xbc9541fb	-0.018219939
110	0xbcb23596	-0.021754067
111	0x3d864b2b	0.06557306
112	0x3db42101	0.087953575
113	0x3d6479b8	0.055780143
114	0x3d0094c2	0.031391867
115	0xbcebaa39	-0.028767692
116	0x3d71f3c6	0.05907037
117	0xb9839eee	-0.0002510468
118	0x3c5dca12	0.013536947
119	0x3a0a5d22	0.000527816
120	0x3d752fcd	0.05986004
121	0x3ca8d329	0.020608502
122	0x3d049b90	0.03237492
123	0xbd704b47	-0.05866554
124	0xbd559f53	-0.052153897
125	0x3d10a02a	0.035308994
126	0x3cd93847	0.026516093
127	0xb9a3803f	-0.00031185334
128	0xbcded5d7	-0.027201576
129	0x3c67c9c7	0.014147229
130	0xbbab84bf	-0.0052343304
131	0xbd0044a6	-0.03131547
132	0xbca05957	-0.01957385
133	0xbd922f34	-0.071379095
134	0xbd3ab05a	-0.04557834
135	0xbd94da79	-0.07268233
136	0x3d21b156	0.03947576
137	0xbd01c077	-0.03167769
138	0x3cace29f	0.021104155
139	0xbd4be772	-0.04978127
140	0xbd0146be	-0.031561606
141	0xbd2114f8	-0.039326638
142	0xbd667e68	-0.056272894
143	0x3bf63e76	0.00751477
144	0x3b8ae4c3	0.0042386963
145	0xbd695ef8	-0.056975335
146	0xbd039517	-0.032124605
147	0xbc8e9fa0	-0.0174101
148	0x3c8b01f5	0.016968707
149	0x3c195c6a	0.009360412
150	0xbd3ee0f2	-0.046601243
151	0xbcefab78	-0.029256567
152	0xbd4aa63e	-0.049474947
153	0xbd88426d	-0.06653295
154	0x3ce54c08	0.027990356
155	0x3d7f7250	0.062364876
156	0xbd5cb5a8	-0.05388418
157	0xbd7af1d5	-0.061265785
158	0xbcc1d51b	-0.023661187
159	0xbd3c50ed	-0.045975614
160	0xbcb1ccc1	-0.02170408
161	0xbd870f9b	-0.065947734
162	0xbd774816	-0.06037148
163	0xbd6845db	-0.056707244
164	0xbd07b377	-0.033130135
165	0xbaec0576	-0.0018006999
166	0xbd424c9c	-0.04743634
167	0xbc40645f	-0.01174268
168	0xbc8ac486	-0.016939413
169	0x3d1837df	0.037162658
170	0xbd060678	-0.032721013
171	0xbcc1dccd	-0.023664856
172	0x3d069ec2	0.032866247
173	0xbb50de74	-0.0031870874
174	0x3c4a1338	0.012333684
175	0xbc2f071d	-0.010682848
176	0x3d70899e	0.058724992
177	0x3d14388d	0.036186744
178	0xbd9e5ec5	-0.077329196
179	0x3d1b9a5e	0.037989013
180	0x3d31b4b3	0.04338522
181	0xbc561bcd	-0.013068152
182	0xba06c7a1	-0.00051414414
183	0xbcb4cee3	-0.022071308
184	0x3d61ce78	0.055128545
185	0x3cff892a	0.031193335
186	0x3cb650fb	0.022255411
187	0xbd9257ed	-0.07145677
188	0x3d7026db	0.058630805
189	0x3bc580c5	0.0060273134
190	0xbacea4da	-0.0015765682
191	0xbd51d164	-0.05122508
192	0x3cc4fea3	0.024047201
193	0xbd8b49ee	-0.0680121
194	0x3c0e8a4d	0.008699966
195	0xbd87f7e8	-0.06639081
196	0x3c9aae05	0.018881807
197	0x3c42a990	0.011881247
198	0xbd99eb01	-0.075155266
199	0xbcd9613a	-0.026535619
200	0xbc03b5c8	-0.0080389455
201	0xbc718643	-0.014741483
202	0x3d2f4000	0.042785645
203	0xbc434279	-0.011917704
204	0xbd47ee7e	-0.04881143
205	0xbcc620b4	-0.024185516
206	0xbd0d93a2	-0.03456462
207	0xbd1cea0b	-0.03830914
208	0xbc2b45c5	-0.010453646
209	0xbc1b6b9c	-0.009486105
210	0xbc8b4491	-0.017000468
211	0xbc987670	-0.018611163
212	0x3c370fe2	0.01117322
213	0x3b8a190e	0.0042144125
214	0xbd13ed46	-0.036114953
215	0x3bd4013a	0.006469873
216	0xbd367751	-0.044547383
217	0xbd627aec	-0.05529301
218	0xbd5b3014	-0.053512648
219	0xbd1784b1	-0.03699178
220	0xbd86fbb1	-0.06590975
221	0xbb87d869	-0.004145671
222	0xbcc66420	-0.024217665
223	0x3d60cfdf	0.05488574
224	0xbd94c31a	-0.07263775
225	0xbd5197e7	-0.051170256
226	0x3d2188c0	0.039437056
227	0x3d4db194	0.05021818
228	0x3d4c7612	0.049917288
229	0x3da3fad9	0.0800683
230	0x3db45101	0.08804513
231	0xbd253611	-0.040334765
232	0x3d69aca0	0.057049394
233	0x3c3aee31	0.011409328
234	0x3bce5d03	0.006297709
235	0xbbf7d5ef	-0.0075633447
236	0x3ae48d89	0.00174372
237	0x3d1e29c0	0.038614035
238	0xbd69742a	-0.05699555
239	0x3cc64eb1	0.024207445
240	0xbd1bc84a	-0.038032807
241	0x3cd359e5	0.025799701
242	0xbc88b8f6	-0.016689759
243	0x3d4ac420	0.049503446
244	0x3cc19c2d	0.02363404
245	0xbd3dc0f1	-0.04632658
246	0x3d8610b2	0.06546153
247	0xbc8e7d7c	-0.01739382
248	0xbd87953a	-0.066202596
249	0x3c6cb8ba	0.014448339
250	0x3d6017dc	0.054710254
251	0x3d6a29c2	0.05716873
252	0xbcf046b2	-0.029330585
253	0xbcf82535	-0.03029118
254	0xbd82e18a	-0.063906744
255	0x3d86649d	0.06562159

liner2.weight f4 [70, 260]
0	0xbcaf367d	-0.021388287
1	0xbcaa0471	-0.020754071
2	0xbcdbeae8	-0.02684541
3	0xbd1ad509	-0.037800822
4	0x3c186163	0.009300563
5	0x3d0b400a	0.03399662
6	0xbbcb8fb8	-0.006212201
7	0xbd3666c9	-0.044531617
8	0x3be84960	0.007088825
9	0xbc05ccd1	-0.008166508
10	0x3cd6e558	0.026232406
11	0xbd8b00b6	-0.06787245
12	0x3d2ddca8	0.042446762
13	0xbd0d18b7	-0.034447398
14	0x3cd7ef80	0.02635932
15	0xbc8d8b1c	-0.017278247
16	0x3d2594cf	0.040425118
17	0x3cf5aec4	0.029990561
18	0x3d5bb3ab	0.05363814
19	0x3c904d7e	0.017615076
20	0xbd8d0bac	-0.06886992
21	0xbced0798	-0.028934285
22	0xbb118e2a	-0.002220998
23	0xbd579b61	-0.052638415
24	0x3cd0c3fd	0.02548408
25	0xbd03c8aa	-0.03217379
26	0x3c7756af	0.015096351
27	0xbd29cc88	-0.04145482
28	0xbb5fe677	-0.0034164467
29	0xbc3be690	-0.011468545
30	0x3d4c28b0	0.04984349
31	0xbcf18e35	-0.029486755
32	0x3cbd7cfc	0.023130886
33	0xbd79fb95	-0.061030943
34	0xbd823883	-0.06358435
35	0xbd175a5d	-0.03695141
36	0x3d07293e	0.032998316
37	0x3d48b9d5	0.04900535
38	0x3cdc8b07	0.026921762
39	0xbcf6878f	-0.030093936
40	0x3b50cce0	0.0031860396
41	0xbc0a2072	-0.008430587
42	0xbd1087d6	-0.035285793
43	0x3b16f165	0.0023032066
44	0xbd3cdb53	-0.0461076
45	0xbb756f03	-0.0037450201
46	0xbd5d3547	-0.054005887
47	0xbd1a5ed2	-0.037688084
48	0xbc2e2ced	-0.010630828
49	0xbd5888a8	-0.0528647
50	0x3d1e9eef	0.03872579
51	0xbd2e81df	-0.042604323
52	0xbd888368	-0.06665689
53	0xbd674f83	-0.056472313
54	0xbc79f030	-0.015255019
55	0xbd3848b5	-0.044991214
56	0xbcfedf1b	-0.031112244
57	0xba8c28da	-0.0010693327
58	0x3cd2262b	0.025652966
59	0xbd4c7d0b	-0.049923938
60	0xbc52eb24	-0.012873445
61	0xbd657f8f	-0.056029852
62	0x3d29a060	0.04141271
63	0xbcc5c567	-0.02414198
64	0x3cd073f7	0.025445921
65	0xbd86975f	-0.065718405
66	0xbcc07b01	-0.023496153
67	0x3d58598c	0.052819774
68	0x3d290ba2	0.04127086
69	0x3d0b4248	0.033998758
70	0x3b535100	0.0032244325
71	0x3cc5e21b	0.024155667
72	0xbd78b7f9	-0.060722325
73	0x3c04d825	0.0081081735
74	0x3d004c69	0.03132287
75	0xbca07887	-0.019588722
76	0x3d46c9b8	0.048532218
77	0x3a8a8528	0.0010568248
78	0xbcca5034	-0.024696447
79	0xbd5581c9	-0.052125726
80	0xbc83e4bf	-0.016100286
81	0x3d0a4af4	0.033762887
82	0xbabaf2d9	-0.0014263048
83	0xbd45164b	-0.048116963
84	0xbc534fbc	-0.012897428
85	0x3d621ad4	0.055201367
86	0xbd543845	-0.051811475
87	0xbd825dda	-0.06365557
88	0xbd298c1b	-0.04139338
89	0xbcc9e3c8	-0.024644747
90	0xbcede160	-0.029038131
91	0xba963b60	-0.0011461787
92	0x3d4003d2	0.046878643
93	0xbc30abc4	-0.01078314
94	0x3b4ad249	0.0030948094
95	0xbc7b62e1	-0.015343399
96	0x3c979e1b	0.018508008
97	0xbca31365	-0.019906709
98	0xbc910c9e	-0.017706212
99	0x3bc70a22	0.006074206
100	0x3cd207f9	0.025638567
101	0x3cf3362a	0.029688913
102	0x3d306ed0	0.04307443
103	0x3b31670c	0.0027069477
104	0xbd4063ae	-0.046970062
105	0x3ca7d134	0.020485498
106	0xbd70b97b	-0.058770638
107	0xbb40900c	-0.0029382734
108	0xbcf11e6d	-0.029433453
109	0xbcdc04ba	-0.026857723
110	0xbd864070	-0.06555259
111	0xbcba3248	-0.022729054
112	0xbd825d3e	-0.06365441
113	0xbd2fafd7	-0.042892303
114	0xbd1ba6c9	-0.038000856
115	0x3ce9875b	0.028506925
116	0xbce71ded	-0.028212512
117	0xbceb9594	-0.028757848
118	0xbcf823c8	-0.0302905
119	0x3cfcebdf	0.03087419
120	0x3c140258	0.009033762
121	0x3cc77ef6	0.024352532
122	0x3d32f12d	0.043687034
123	0xbc9c0119	-0.019043492
124	0xbd318316	-0.043337904
125	0x3d4fe38e	0.050754122
126	0xbd8c980a	-0.06864937
127	0x3cc2e032	0.023788545
128	0x3d47407e	0.04864549
129	0x3d2fa1b4	0.04287882
130	0xbcd84eec	-0.02640482
131	0xbc1bda06	-0.00951243
132	0x3cfd30a0	0.030906975
133	0x3d5aa11f	0.053376313
134	0xbd28affc	-0.041183457
135	0xbb8b4d35	-0.004251147
136	0x3d529958	0.05141577
137	0xb887c1dd	-6.4734115e-05
138	0x3d33331d	0.043749917
139	0xbd7b7681	-0.06139231
140	0xbb9321b9	-0.004490104
141	0xbce47bda	-0.027891088
142	0xbaa800bb	-0.00128176
143	0x3ac0f345	0.0014720937
144	0xbce0f44e	-0.027460244
145	0x3d2c5469	0.042072687
146	0x3b6f20c9	0.0036488047
147	0xbd3fb530	-0.046803653
148	0x3d02eaa5	0.031962056
149	0x3cb94dbb	0.022620073
150	0x3cbd0757	0.023074789
151	0xbc00a23c	-0.00785118
152	0xbd179b76	-0.037013493
153	0xbc1e5cca	-0.009665677
154	0x3ca43251	0.020043524
155	0x3aa3b758	0.0012490554
156	0x3d152cd9	0.036419723
157	0xbd011f34	-0.0315239
158	0x3d139d69	0.03603879
159	0xbd25d3f0	-0.040485322
160	0x3d038148	0.032105714
161	0x39ce4792	0.00039344706
162	0xbb086c57	-0.0020816529
163	0x3d2b2143	0.041779768
164	0xbd35bf6a	-0.044372
165	0x39d490ee	0.00040543772
166	0xbd2acf64	-0.04170169
167	0xbd6013a1	-0.05470622
168	0x3d4da262	0.05020369
169	0x3aebb984	0.0017984365
170	0x3cbb1561	0.022837343
171	0xbc677170	-0.014126167
172	0x3ceee735	0.029162982
173	0xbd5997af	-0.053123172
174	0x3c99a956	0.018757503
175	0x3b9a3b3f	0.0047067697
176	0xbd231681	-0.039816383
177	0x3d295f58	0.041350693
178	0xbd6dbbd8	-0.05804047
179	0xbd136c89	-0.03599218
180	0xbd5e60ea	-0.054291643
181	0xbd2fb6a1	-0.042898778
182	0x3b1294ab	0.0022366445
183	0xbd3b315d	-0.045701373
184	0xbcad901e	-0.021186884
185	0x3d3f450a	0.0466967
186	0xbd3b05c0	-0.04565978
187	0xbd21bf6a	-0.039489187
188	0xbd5680aa	-0.052368797
189	0x3cffd22e	0.031228151
190	0xbd6ee8c6	-0.05832746
191	0xbd6e6510	-0.05820185
192	0xbd55a84b	-0.05216245
193	0x3d31fad8	0.043452114
194	0xbcf32ce1	-0.029684486
195	0xbbeac920	-0.0071650892
196	0xbce99790	-0.028514653
197	0xbd8cb79f	-0.068709604
198	0x3d4557c7	0.048179414
199	0xbd0b07fa	-0.033943154
200	0x3d544b8e	0.051829867
201	0xbd14e0d7	-0.036347236
202	0x3d45b361	0.048266772
203	0xbcf31138	-0.029671296
204	0x3948691a	0.0001911264
205	0x3ce3c7b1	0.027805181
206	0x3c8fa6ec	0.01753565
207	0xbd855216	-0.06509797
208	0x3c9591b5	0.018257955
209	0xbd429f5c	-0.04751526
210	0x3cb13f95	0.021636764
211	0xbc92f03d	-0.01793682
212	0x3aabc72a	0.001310562
213	0xbd83fa9e	-0.06444286
214	0x3c21f085	0.0098840045
215	0x3d2102c5	0.03930928
216	0xbd4c66c0	-0.049902678
217	0x3cea8154	0.028626122
218	0x3cde9761	0.027171792
219	0xbcc573d1	-0.024103077
220	0x39ca7675	0.000386167
221	0x3d23e4af	0.04001301
222	0xbd387908	-0.0450373
223	0x39d061ea	0.00039745803
224	0xbd3db432	-0.046314426
225	0xbd882b04	-0.066488296
226	0x3cb0cdd7	0.021582527
227	0xbca71b43	-0.020398742
228	0x3cb8b4a9	0.022547083
229	0x3d246436	0.04013463
230	0xbc616200	-0.013756275
231	0xbc7f19c2	-0.015570106
232	0x3cbf8178	0.023377165
233	0x3d1136f6	0.035452805
234	0xbc453a94	-0.012037892
235	0xbbf57904	-0.007491233
236	0xbc32163c	-0.010869559
237	0x3d2d2624	0.0422727
238	0x3c46250b	0.012093793
239	0xbcef37e8	-0.029201463
240	0xbcbc9b8c	-0.02302339
241	0xbd270efa	-0.040785767
242	0xbd199be0	-0.03750217
243	0xbd1a2601	-0.0376339
244	0x3d081048	0.033218652
245	0x3d227970	0.039666593
246	0xbd19e86b	-0.037575167
247	0x3aad8f3d	0.0013241541
248	0x3d4728e2	0.048622973
249	0xbbfb8538	-0.007675793
250	0x3cff2c96	0.03114919
251	0x3d1978cc	0.037468717
252	0xbd647cd5	-0.05578311
253	0xbd11f2b4	-0.03563185
254	0xbd457bba	-0.048213698
255	0x3b77337b	0.0037719894

liner2.bias f4 [70]
0	0x3cc872d4	0.024468817
1	0xbbc9940f	-0.006151683
2	0xbcba4744	-0.02273906
3	0x3c18094e	0.009279562
4	0x3d79d9bb	0.06099866
5	0x3d41ca8a	0.047312297
6	0x3d3aead6	0.045634113
7	0x3ccc8749	0.024966853
8	0xba9e50cc	-0.0012078523
9	0x3d82ea99	0.06392402
10	0x3d013de5	0.031553168
11	0x3d833f82	0.064085975
12	0xbce4f09b	-0.02794676
13	0xbd8776de	-0.06614469
14	0x3b4daef6	0.0031384802
15	0xbd12bc5f	-0.035824176
16	0xbd07ca03	-0.033151638
17	0x3d268017	0.0406495
18	0xbd0a43a9	-0.033755932
19	0x3d327535	0.04356881
20	0x3d2609f4	0.040536836
21	0x3d6870bc	0.056748137
22	0xbd0b7d8c	-0.034055278
23	0x3cc2980e	0.023754146
24	0xbca90fb5	-0.020637373
25	0xbbbac555	-0.0056997933
26	0x3d1418a0	0.036156297
27	0x3d292bd9	0.041301582
28	0xbcdc649f	-0.026903449
29	0xbcd4bafd	-0.02596807
30	0xbc6ab763	-0.014325949
31	0x3c12c7bc	0.008958753
32	0x3ca4b279	0.020104634
33	0x3ce7541a	0.028238345
34	0x3ce54700	0.027987957
35	0x3b9bd7ec	0.0047559645
36	0xbd6482e2	-0.055788882
37	0xbcd76028	-0.026290968
38	0xbd3a6db4	-0.045514777
39	0x3c70c60d	0.0146956565
40	0x3bc19ec1	0.0059088175
41	0x3d88eb35	0.06685487
42	0xbcf4e677	-0.02989505
43	0xbd0facdc	-0.03507696
44	0xbc8d0b22	-0.017217223
45	0xbc750005	-0.014953618
46	0x3d80e2fa	0.06293292
47	0xbd5f18a5	-0.054466862
48	0xba7d8856	-0.00096715
49	0xbb57cba0	-0.0032927766
50	0xbd8f1cfc	-0.0698795
51	0xbcabe5f7	-0.02098368
52	0xbd36212f	-0.04446524
53	0xbd64c1e6	-0.05584898
54	0x3c98b21a	0.018639613
55	0xbd8e1139	-0.06936879
56	0xbc47df10	-0.012199178
57	0xbc133b73	-0.008986342
58	0xbd84231f	-0.06452011
59	0x3d0432c3	0.032274973
60	0xbcdd1b5b	-0.026990583
61	0x3dac0ec3	0.08401253
62	0x3c41ac09	0.0118208015
63	0xbc41096d	-0.011782032
64	0xbd2009d1	-0.03907186
65	0x3d71b91d	0.05901443
66	0xbcc28f3c	-0.02374994
67	0xbcea22ec	-0.028581105
68	0x3d5ecd46	0.054394983
69	0xbc6d4988	-0.014482863

liner3.weight f4 [1, 70]
0	0xbdb12970	-0.08650482
1	0xbd96c744	-0.07362226
2	0x3c9c7c20	0.019102156
3	0x3dc9cf6a	0.09854014
4	0x3dd108cc	0.10206756
5	0xbdb5d204	-0.08877948
6	0xbd93bd2b	-0.07213815
7	0xbde7b313	-0.113134526
8	0xbdde4612	-0.108532086
9	0x3df06dc6	0.117396876
10	0xbd9eed1f	-0.07760071
11	0xbdba4201	-0.090946205
12	0x3e34a704	0.17641836
13	0xbd219bb2	-0.039455123
14	0x3ddc9bcc	0.107719034
15	0xbd4fa49c	-0.050694093
16	0xbc8975ef	-0.016779868
17	0x3e2fd9b8	0.17172897
18	0x3e0b8c23	0.13627677
19	0x3d95025c	0.07275841
20	0x3e139318	0.1441158
21	0x3e172642	0.14760688
22	0xbdb84ba7	-0.089988045
23	0xbe1c3604	-0.1525498
24	0xbd4a41fb	-0.04937933
25	0xbdae7a15	-0.08519379
26	0x3e32aaf9	0.17448033
27	0x3e23c11f	0.15991639
28	0xbd3af7ff	-0.045646664
29	0x3deb3484	0.11484626
30	0xbd943596	-0.07236783
31	0xbd8b745a	-0.06809302
32	0x3dd8fdf4	0.10595313
33	0xbc90744c	-0.01763358
34	0xbde0a279	-0.10968489
35	0xbd752c8d	-0.05985694
36	0xbd631c6e	-0.055447035
37	0x3dbf9671	0.09354866
38	0xbde15140	-0.11001825
39	0xbdbd0006	-0.0922852
40	0x3d4ea84b	0.050453465
41	0xbdce4b48	-0.100729525
42	0xbadbed3f	-0.0016779079
43	0xbe222f61	-0.15838386
44	0xbce4a7d8	-0.027912065
45	0xbd1f8892	-0.038948603
46	0xbe2b22ea	-0.16712537
47	0xbc1ad6d2	-0.009450631
48	0x3e10c8c2	0.14139083
49	0x3dcb288e	0.099198446
50	0xbce13886	-0.027492773
51	0x3cef9367	0.029245092
52	0x3c728bd3	0.0148038445
53	0xbd63f134	-0.05564995
54	0xbccba5c5	-0.024859319
55	0xbc4901e6	-0.012268519
56	0xbda476db	-0.080304824
57	0xbd2d1124	-0.042252675
58	0xbd49c4ac	-0.049259827
59	0xbb65d231	-0.003506791
60	0xbd97cca3	-0.07412078
61	0x3e2b2619	0.16713752
62	0x3da2e299	0.07953376
63	0x3d961a3d	0.07329223
64	0xbdabb217	-0.08383577
65	0x3e2ac672	0.16677263
66	0x3dcfc010	0.10144055
67	0x3dcab5c6	0.09897952
68	0x3dbce486	0.09223275
69	0xbd23999a	-0.039941408
